…
I0228 11:16:21.798276 28130 upgrade_proto.cpp:80] Successfully upgraded batch norm layers using deprecated params.
I0228 11:16:21.798694 28130 net.cpp:58] Initializing net from parameters: 
name: "gan_new_mnist"
state {
  phase: TRAIN
  level: 0
  stage: ""
}
layer {
  name: "data"
  type: "Data"
  top: "data"
  top: "label"
  include {
    phase: TRAIN
  }
  transform_param {
    scale: 0.00784314
    mean_value: 127.5
  }
  data_param {
    source: "/home/magic/END/dataset/mnist_raw/mnist_png/training/train_mnist32_lmdb"
    batch_size: 32
    backend: LMDB
  }
}
layer {
  name: "encode"
  type: "Encode"
  bottom: "label"
  top: "encode"
}
layer {
  name: "rand_vec"
  type: "RandVec"
  top: "rand_vec"
  rand_vec_param {
    batch_size: 32
    dim: 100
    lower: -1
    upper: 1
    repeat: 3
  }
}
layer {
  name: "z_continus"
  type: "RandVec"
  top: "z_continus"
  rand_vec_param {
    batch_size: 32
    dim: 2
    lower: -1
    upper: 1
    repeat: 3
  }
}
layer {
  name: "concat_code"
  type: "Concat"
  bottom: "encode"
  bottom: "z_continus"
  bottom: "rand_vec"
  top: "concat_code"
  concat_param {
    axis: 1
  }
}
layer {
  name: "ip1"
  type: "InnerProduct"
  bottom: "concat_code"
  top: "ip1"
  param {
    name: "ip_w_g"
    lr_mult: 1
  }
  param {
    name: "ip_b_g"
    lr_mult: 2
  }
  inner_product_param {
    num_output: 2048
    weight_filler {
      type: "gaussian"
      std: 0.02
    }
    bias_filler {
      type: "constant"
      value: 0
    }
    gen_mode: true
  }
}
layer {
  name: "ip1_reshape"
  type: "Reshape"
  bottom: "ip1"
  top: "ip1_reshape"
  reshape_param {
    shape {
      dim: 0
      dim: 128
      dim: 4
      dim: 4
    }
  }
}
layer {
  name: "batch_norm_g1"
  type: "BatchNorm"
  bottom: "ip1_reshape"
  top: "ip1_reshape"
  batch_norm_param {
    use_global_stats: false
  }
}
layer {
  name: "scale_batch_g1"
  type: "Scale"
  bottom: "ip1_reshape"
  top: "ip1_reshape"
  param {
    name: "gen_s1"
    lr_mult: 1
    decay_mult: 1
  }
  param {
    name: "gen_b1"
    lr_mult: 1
    decay_mult: 1
  }
  scale_param {
    bias_term: true
    gen_mode: true
  }
}
layer {
  name: "relu_g1"
  type: "ReLU"
  bottom: "ip1_reshape"
  top: "ip1_reshape"
}
layer {
  name: "gen_conv2"
  type: "Deconvolution"
  bottom: "ip1_reshape"
  top: "gen_conv2"
  param {
    name: "gen_w_2"
    lr_mult: 1
  }
  param {
    name: "gen_b_2"
    lr_mult: 2
  }
  convolution_param {
    num_output: 64
    pad: 2
    kernel_size: 5
    stride: 2
    weight_filler {
      type: "gaussian"
      std: 0.02
    }
    bias_filler {
      type: "constant"
      value: 0
    }
    gen_mode: true
    shape_offset: 1
    shape_offset: 1
  }
}
layer {
  name: "batch_norm_g2"
  type: "BatchNorm"
  bottom: "gen_conv2"
  top: "gen_conv2"
  batch_norm_param {
    use_global_stats: false
  }
}
layer {
  name: "scale_batch_g2"
  type: "Scale"
  bottom: "gen_conv2"
  top: "gen_conv2"
  param {
    name: "gen_s2"
    lr_mult: 1
    decay_mult: 1
  }
  param {
    name: "gen_b2"
    lr_mult: 1
    decay_mult: 1
  }
  scale_param {
    bias_term: true
    gen_mode: true
  }
}
layer {
  name: "relu_g2"
  type: "ReLU"
  bottom: "gen_conv2"
  top: "gen_conv2"
}
layer {
  name: "gen_conv3"
  type: "Deconvolution"
  bottom: "gen_conv2"
  top: "gen_conv3"
  param {
    name: "gen_w_3"
    lr_mult: 1
  }
  param {
    name: "gen_b_3"
    lr_mult: 2
  }
  convolution_param {
    num_output: 32
    pad: 2
    kernel_size: 5
    stride: 2
    weight_filler {
      type: "gaussian"
      std: 0.02
    }
    bias_filler {
      type: "constant"
      value: 0
    }
    gen_mode: true
    shape_offset: 1
    shape_offset: 1
  }
}
layer {
  name: "batch_norm_g3"
  type: "BatchNorm"
  bottom: "gen_conv3"
  top: "gen_conv3"
  batch_norm_param {
    use_global_stats: false
  }
}
layer {
  name: "scale_batch_g3"
  type: "Scale"
  bottom: "gen_conv3"
  top: "gen_conv3"
  param {
    name: "gen_s3"
    lr_mult: 1
    decay_mult: 1
  }
  param {
    name: "gen_b3"
    lr_mult: 1
    decay_mult: 1
  }
  scale_param {
    bias_term: true
    gen_mode: true
  }
}
layer {
  name: "relu_g3"
  type: "ReLU"
  bottom: "gen_conv3"
  top: "gen_conv3"
}
layer {
  name: "gen_conv4"
  type: "Deconvolution"
  bottom: "gen_conv3"
  top: "gen_conv4"
  param {
    name: "gen_w_4"
    lr_mult: 1
  }
  param {
    name: "gen_b_4"
    lr_mult: 2
  }
  convolution_param {
    num_output: 1
    pad: 2
    kernel_size: 5
    stride: 2
    weight_filler {
      type: "gaussian"
      std: 0.02
    }
    bias_filler {
      type: "constant"
      value: 0
    }
    gen_mode: true
    shape_offset: 1
    shape_offset: 1
  }
}
layer {
  name: "tanh_g4"
  type: "TanH"
  bottom: "gen_conv4"
  top: "gen_conv4"
}
layer {
  name: "gan_gate"
  type: "GANGate"
  bottom: "data"
  bottom: "gen_conv4"
  top: "dis_input"
}
layer {
  name: "dis_conv_d1"
  type: "Convolution"
  bottom: "dis_input"
  top: "dis_conv_d1"
  param {
    name: "dis_w_1"
    lr_mult: 1
  }
  param {
    name: "dis_b_1"
    lr_mult: 2
  }
  convolution_param {
    num_output: 32
    pad: 2
    kernel_size: 5
    stride: 2
    weight_filler {
      type: "gaussian"
      std: 0.02
    }
    bias_filler {
      type: "constant"
      value: 0
    }
    dis_mode: true
  }
}
layer {
  name: "batch_norm_d1"
  type: "BatchNorm"
  bottom: "dis_conv_d1"
  top: "dis_conv_d1"
  batch_norm_param {
    use_global_stats: false
  }
}
layer {
  name: "scale_batch_d1"
  type: "Scale"
  bottom: "dis_conv_d1"
  top: "dis_conv_d1"
  param {
    name: "dis_s1"
    lr_mult: 1
    decay_mult: 1
  }
  param {
    name: "dis_b1"
    lr_mult: 1
    decay_mult: 1
  }
  scale_param {
    bias_term: true
    dis_mode: true
  }
}
layer {
  name: "relu_d1"
  type: "ReLU"
  bottom: "dis_conv_d1"
  top: "dis_conv_d1"
  relu_param {
    negative_slope: 0.2
  }
}
layer {
  name: "dis_conv_d2"
  type: "Convolution"
  bottom: "dis_conv_d1"
  top: "dis_conv_d2"
  param {
    name: "dis_w_2"
    lr_mult: 1
  }
  param {
    name: "dis_b_2"
    lr_mult: 2
  }
  convolution_param {
    num_output: 64
    pad: 2
    kernel_size: 5
    stride: 2
    weight_filler {
      type: "gaussian"
      std: 0.02
    }
    bias_filler {
      type: "constant"
      value: 0
    }
    dis_mode: true
  }
}
layer {
  name: "batch_norm_d2"
  type: "BatchNorm"
  bottom: "dis_conv_d2"
  top: "dis_conv_d2"
  batch_norm_param {
    use_global_stats: false
  }
}
layer {
  name: "scale_batch_d2"
  type: "Scale"
  bottom: "dis_conv_d2"
  top: "dis_conv_d2"
  param {
    name: "dis_s2"
    lr_mult: 1
    decay_mult: 1
  }
  param {
    name: "dis_b2"
    lr_mult: 1
    decay_mult: 1
  }
  scale_param {
    bias_term: true
    dis_mode: true
  }
}
layer {
  name: "relu_d2"
  type: "ReLU"
  bottom: "dis_conv_d2"
  top: "dis_conv_d2"
  relu_param {
    negative_slope: 0.2
  }
}
layer {
  name: "dis_conv_d3"
  type: "Convolution"
  bottom: "dis_conv_d2"
  top: "dis_conv_d3"
  param {
    name: "dis_w_3"
    lr_mult: 1
  }
  param {
    name: "dis_b_3"
    lr_mult: 2
  }
  convolution_param {
    num_output: 128
    pad: 2
    kernel_size: 5
    stride: 2
    weight_filler {
      type: "gaussian"
      std: 0.02
    }
    bias_filler {
      type: "constant"
      value: 0
    }
    dis_mode: true
  }
}
layer {
  name: "batch_norm_d3"
  type: "BatchNorm"
  bottom: "dis_conv_d3"
  top: "dis_conv_d3"
  batch_norm_param {
    use_global_stats: false
  }
}
layer {
  name: "scale_batch_d3"
  type: "Scale"
  bottom: "dis_conv_d3"
  top: "dis_conv_d3"
  param {
    name: "dis_s3"
    lr_mult: 1
    decay_mult: 1
  }
  param {
    name: "dis_b3"
    lr_mult: 1
    decay_mult: 1
  }
  scale_param {
    bias_term: true
    dis_mode: true
  }
}
layer {
  name: "relu_d3"
  type: "ReLU"
  bottom: "dis_conv_d3"
  top: "dis_conv_d3"
  relu_param {
    negative_slope: 0.2
  }
}
layer {
  name: "recog_conv_d1"
  type: "Convolution"
  bottom: "dis_input"
  top: "recog_conv_d1"
  param {
    name: "dis_w_1"
    lr_mult: 1
  }
  param {
    name: "dis_b_1"
    lr_mult: 2
  }
  convolution_param {
    num_output: 32
    pad: 2
    kernel_size: 5
    stride: 2
    weight_filler {
      type: "gaussian"
      std: 0.02
    }
    bias_filler {
      type: "constant"
      value: 0
    }
    dis_mode: true
  }
}
layer {
  name: "batch_norm_recog1"
  type: "BatchNorm"
  bottom: "recog_conv_d1"
  top: "recog_conv_d1"
  batch_norm_param {
    use_global_stats: false
  }
}
layer {
  name: "scale_batch_recog1"
  type: "Scale"
  bottom: "recog_conv_d1"
  top: "recog_conv_d1"
  param {
    name: "dis_s1"
    lr_mult: 1
    decay_mult: 1
  }
  param {
    name: "dis_b1"
    lr_mult: 1
    decay_mult: 1
  }
  scale_param {
    bias_term: true
    dis_mode: true
  }
}
layer {
  name: "relu_recog1"
  type: "ReLU"
  bottom: "recog_conv_d1"
  top: "recog_conv_d1"
  relu_param {
    negative_slope: 0.2
  }
}
layer {
  name: "recog_conv_d2"
  type: "Convolution"
  bottom: "recog_conv_d1"
  top: "recog_conv_d2"
  param {
    name: "dis_w_2"
    lr_mult: 1
  }
  param {
    name: "dis_b_2"
    lr_mult: 2
  }
  convolution_param {
    num_output: 64
    pad: 2
    kernel_size: 5
    stride: 2
    weight_filler {
      type: "gaussian"
      std: 0.02
    }
    bias_filler {
      type: "constant"
      value: 0
    }
    dis_mode: true
  }
}
layer {
  name: "batch_norm_recog2"
  type: "BatchNorm"
  bottom: "recog_conv_d2"
  top: "recog_conv_d2"
  batch_norm_param {
    use_global_stats: false
  }
}
layer {
  name: "scale_batch_recog2"
  type: "Scale"
  bottom: "recog_conv_d2"
  top: "recog_conv_d2"
  param {
    name: "dis_s2"
    lr_mult: 1
    decay_mult: 1
  }
  param {
    name: "dis_b2"
    lr_mult: 1
    decay_mult: 1
  }
  scale_param {
    bias_term: true
    dis_mode: true
  }
}
layer {
  name: "relu_recog2"
  type: "ReLU"
  bottom: "recog_conv_d2"
  top: "recog_conv_d2"
  relu_param {
    negative_slope: 0.2
  }
}
layer {
  name: "recog_conv_d3"
  type: "Convolution"
  bottom: "recog_conv_d2"
  top: "recog_conv_d3"
  param {
    name: "dis_w_3"
    lr_mult: 1
  }
  param {
    name: "dis_b_3"
    lr_mult: 2
  }
  convolution_param {
    num_output: 128
    pad: 2
    kernel_size: 5
    stride: 2
    weight_filler {
      type: "gaussian"
      std: 0.02
    }
    bias_filler {
      type: "constant"
      value: 0
    }
    dis_mode: true
  }
}
layer {
  name: "batch_norm_recog3"
  type: "BatchNorm"
  bottom: "recog_conv_d3"
  top: "recog_conv_d3"
  batch_norm_param {
    use_global_stats: false
  }
}
layer {
  name: "scale_batch_recog3"
  type: "Scale"
  bottom: "recog_conv_d3"
  top: "recog_conv_d3"
  param {
    name: "dis_s3"
    lr_mult: 1
    decay_mult: 1
  }
  param {
    name: "dis_b3"
    lr_mult: 1
    decay_mult: 1
  }
  scale_param {
    bias_term: true
    dis_mode: true
  }
}
layer {
  name: "relu_recog3"
  type: "ReLU"
  bottom: "recog_conv_d3"
  top: "recog_conv_d3"
  relu_param {
    negative_slope: 0.2
  }
}
layer {
  name: "score"
  type: "InnerProduct"
  bottom: "dis_conv_d3"
  top: "score"
  param {
    name: "score_w"
    lr_mult: 1
  }
  param {
    name: "score_b"
    lr_mult: 2
  }
  inner_product_param {
    num_output: 1
    weight_filler {
      type: "gaussian"
      std: 0.0002
    }
    bias_filler {
      type: "constant"
      value: 0
    }
    dis_mode: true
  }
}
layer {
  name: "sigmoid"
  type: "Sigmoid"
  bottom: "score"
  top: "score"
}
layer {
  name: "recong_ip"
  type: "InnerProduct"
  bottom: "recog_conv_d3"
  top: "recong_ip"
  param {
    name: "recong_w"
    lr_mult: 1
  }
  param {
    name: "recong_b"
    lr_mult: 2
  }
  inner_product_param {
    num_output: 128
    weight_filler {
      type: "gaussian"
      std: 0.0002
    }
    bias_filler {
      type: "constant"
      value: 0
    }
    dis_mode: true
  }
}
layer {
  name: "category_ip"
  type: "InnerProduct"
  bottom: "recong_ip"
  top: "category_ip"
  param {
    name: "category_w"
    lr_mult: 1
  }
  param {
    name: "category_b"
    lr_mult: 2
  }
  inner_product_param {
    num_output: 10
    weight_filler {
      type: "gaussian"
      std: 0.0002
    }
    bias_filler {
      type: "constant"
      value: 0
    }
    dis_mode: true
  }
}
layer {
  name: "continus_ip"
  type: "InnerProduct"
  bottom: "recong_ip"
  top: "continus_ip"
  param {
    name: "continus_w"
    lr_mult: 1
  }
  param {
    name: "continus_b"
    lr_mult: 2
  }
  inner_product_param {
    num_output: 2
    weight_filler {
      type: "gaussian"
      std: 0.0002
    }
    bias_filler {
      type: "constant"
      value: 0
    }
    dis_mode: true
  }
}
layer {
  name: "continus_sig"
  type: "Sigmoid"
  bottom: "continus_ip"
  top: "continus_ip"
}
layer {
  name: "gan_loss"
  type: "GANDGLoss"
  bottom: "score"
  top: "gan_loss"
  gan_loss_param {
    dis_iter: 1
    gen_iter: 2
  }
}
layer {
  name: "cat_loss"
  type: "SoftmaxWithLoss"
  bottom: "category_ip"
  bottom: "label"
  top: "cat_loss"
}
layer {
  name: "con_loss"
  type: "EuclideanLoss"
  bottom: "continus_ip"
  bottom: "z_continus"
  top: "l2_error"
  loss_weight: 0
}
I0228 11:16:21.799013 28130 layer_factory.hpp:77] Creating layer data
I0228 11:16:21.799628 28130 net.cpp:100] Creating Layer data
I0228 11:16:21.799665 28130 net.cpp:408] data -> data
I0228 11:16:21.799697 28130 net.cpp:408] data -> label
I0228 11:16:21.799726 28133 db_lmdb.cpp:35] Opened lmdb /home/magic/END/dataset/mnist_raw/mnist_png/training/train_mnist32_lmdb
I0228 11:16:21.799787 28130 data_layer.cpp:41] output data size: 32,1,32,32
I0228 11:16:21.799973 28130 net.cpp:150] Setting up data
I0228 11:16:21.799985 28130 net.cpp:157] Top shape: 32 1 32 32 (32768)
I0228 11:16:21.799993 28130 net.cpp:157] Top shape: 32 (32)
I0228 11:16:21.799998 28130 net.cpp:165] Memory required for data: 131200
I0228 11:16:21.800004 28130 layer_factory.hpp:77] Creating layer label_data_1_split
I0228 11:16:21.800022 28130 net.cpp:100] Creating Layer label_data_1_split
I0228 11:16:21.800029 28130 net.cpp:434] label_data_1_split <- label
I0228 11:16:21.800042 28130 net.cpp:408] label_data_1_split -> label_data_1_split_0
I0228 11:16:21.800053 28130 net.cpp:408] label_data_1_split -> label_data_1_split_1
I0228 11:16:21.800063 28130 net.cpp:150] Setting up label_data_1_split
I0228 11:16:21.800074 28130 net.cpp:157] Top shape: 32 (32)
I0228 11:16:21.800081 28130 net.cpp:157] Top shape: 32 (32)
I0228 11:16:21.800086 28130 net.cpp:165] Memory required for data: 131456
I0228 11:16:21.800089 28130 layer_factory.hpp:77] Creating layer encode
I0228 11:16:21.800097 28130 net.cpp:100] Creating Layer encode
I0228 11:16:21.800103 28130 net.cpp:434] encode <- label_data_1_split_0
I0228 11:16:21.800113 28130 net.cpp:408] encode -> encode
I0228 11:16:21.800132 28130 net.cpp:150] Setting up encode
I0228 11:16:21.800140 28130 net.cpp:157] Top shape: 32 10 (320)
I0228 11:16:21.800146 28130 net.cpp:165] Memory required for data: 132736
I0228 11:16:21.800153 28130 layer_factory.hpp:77] Creating layer rand_vec
I0228 11:16:21.800160 28130 net.cpp:100] Creating Layer rand_vec
I0228 11:16:21.800169 28130 net.cpp:408] rand_vec -> rand_vec
I0228 11:16:21.800181 28130 net.cpp:150] Setting up rand_vec
I0228 11:16:21.800189 28130 net.cpp:157] Top shape: 32 100 (3200)
I0228 11:16:21.800192 28130 net.cpp:165] Memory required for data: 145536
I0228 11:16:21.800196 28130 layer_factory.hpp:77] Creating layer z_continus
I0228 11:16:21.800221 28130 net.cpp:100] Creating Layer z_continus
I0228 11:16:21.800231 28130 net.cpp:408] z_continus -> z_continus
I0228 11:16:21.800240 28130 net.cpp:150] Setting up z_continus
I0228 11:16:21.800247 28130 net.cpp:157] Top shape: 32 2 (64)
I0228 11:16:21.800253 28130 net.cpp:165] Memory required for data: 145792
I0228 11:16:21.800257 28130 layer_factory.hpp:77] Creating layer z_continus_z_continus_0_split
I0228 11:16:21.800263 28130 net.cpp:100] Creating Layer z_continus_z_continus_0_split
I0228 11:16:21.800269 28130 net.cpp:434] z_continus_z_continus_0_split <- z_continus
I0228 11:16:21.800282 28130 net.cpp:408] z_continus_z_continus_0_split -> z_continus_z_continus_0_split_0
I0228 11:16:21.800290 28130 net.cpp:408] z_continus_z_continus_0_split -> z_continus_z_continus_0_split_1
I0228 11:16:21.800302 28130 net.cpp:150] Setting up z_continus_z_continus_0_split
I0228 11:16:21.800312 28130 net.cpp:157] Top shape: 32 2 (64)
I0228 11:16:21.800318 28130 net.cpp:157] Top shape: 32 2 (64)
I0228 11:16:21.800324 28130 net.cpp:165] Memory required for data: 146304
I0228 11:16:21.800328 28130 layer_factory.hpp:77] Creating layer concat_code
I0228 11:16:21.800336 28130 net.cpp:100] Creating Layer concat_code
I0228 11:16:21.800343 28130 net.cpp:434] concat_code <- encode
I0228 11:16:21.800350 28130 net.cpp:434] concat_code <- z_continus_z_continus_0_split_0
I0228 11:16:21.800356 28130 net.cpp:434] concat_code <- rand_vec
I0228 11:16:21.800366 28130 net.cpp:408] concat_code -> concat_code
I0228 11:16:21.800384 28130 net.cpp:150] Setting up concat_code
I0228 11:16:21.800392 28130 net.cpp:157] Top shape: 32 112 (3584)
I0228 11:16:21.800400 28130 net.cpp:165] Memory required for data: 160640
I0228 11:16:21.800405 28130 layer_factory.hpp:77] Creating layer ip1
I0228 11:16:21.800418 28130 net.cpp:100] Creating Layer ip1
I0228 11:16:21.800424 28130 net.cpp:434] ip1 <- concat_code
I0228 11:16:21.800433 28130 net.cpp:408] ip1 -> ip1
I0228 11:16:21.808070 28130 net.cpp:150] Setting up ip1
I0228 11:16:21.808091 28130 net.cpp:157] Top shape: 32 2048 (65536)
I0228 11:16:21.808095 28130 net.cpp:165] Memory required for data: 422784
I0228 11:16:21.808107 28130 layer_factory.hpp:77] Creating layer ip1_reshape
I0228 11:16:21.808120 28130 net.cpp:100] Creating Layer ip1_reshape
I0228 11:16:21.808123 28130 net.cpp:434] ip1_reshape <- ip1
I0228 11:16:21.808128 28130 net.cpp:408] ip1_reshape -> ip1_reshape
I0228 11:16:21.808142 28130 net.cpp:150] Setting up ip1_reshape
I0228 11:16:21.808147 28130 net.cpp:157] Top shape: 32 128 4 4 (65536)
I0228 11:16:21.808149 28130 net.cpp:165] Memory required for data: 684928
I0228 11:16:21.808152 28130 layer_factory.hpp:77] Creating layer batch_norm_g1
I0228 11:16:21.808158 28130 net.cpp:100] Creating Layer batch_norm_g1
I0228 11:16:21.808163 28130 net.cpp:434] batch_norm_g1 <- ip1_reshape
I0228 11:16:21.808168 28130 net.cpp:395] batch_norm_g1 -> ip1_reshape (in-place)
I0228 11:16:21.808187 28130 net.cpp:150] Setting up batch_norm_g1
I0228 11:16:21.808192 28130 net.cpp:157] Top shape: 32 128 4 4 (65536)
I0228 11:16:21.808193 28130 net.cpp:165] Memory required for data: 947072
I0228 11:16:21.808207 28130 layer_factory.hpp:77] Creating layer scale_batch_g1
I0228 11:16:21.808212 28130 net.cpp:100] Creating Layer scale_batch_g1
I0228 11:16:21.808215 28130 net.cpp:434] scale_batch_g1 <- ip1_reshape
I0228 11:16:21.808221 28130 net.cpp:395] scale_batch_g1 -> ip1_reshape (in-place)
I0228 11:16:21.808233 28130 layer_factory.hpp:77] Creating layer scale_batch_g1
I0228 11:16:21.808256 28130 net.cpp:150] Setting up scale_batch_g1
I0228 11:16:21.808261 28130 net.cpp:157] Top shape: 32 128 4 4 (65536)
I0228 11:16:21.808264 28130 net.cpp:165] Memory required for data: 1209216
I0228 11:16:21.808269 28130 layer_factory.hpp:77] Creating layer relu_g1
I0228 11:16:21.808274 28130 net.cpp:100] Creating Layer relu_g1
I0228 11:16:21.808277 28130 net.cpp:434] relu_g1 <- ip1_reshape
I0228 11:16:21.808281 28130 net.cpp:395] relu_g1 -> ip1_reshape (in-place)
I0228 11:16:21.808289 28130 net.cpp:150] Setting up relu_g1
I0228 11:16:21.808303 28130 net.cpp:157] Top shape: 32 128 4 4 (65536)
I0228 11:16:21.808307 28130 net.cpp:165] Memory required for data: 1471360
I0228 11:16:21.808310 28130 layer_factory.hpp:77] Creating layer gen_conv2
I0228 11:16:21.808320 28130 net.cpp:100] Creating Layer gen_conv2
I0228 11:16:21.808324 28130 net.cpp:434] gen_conv2 <- ip1_reshape
I0228 11:16:21.808329 28130 net.cpp:408] gen_conv2 -> gen_conv2
I0228 11:16:21.814831 28130 net.cpp:150] Setting up gen_conv2
I0228 11:16:21.814844 28130 net.cpp:157] Top shape: 32 64 8 8 (131072)
I0228 11:16:21.814847 28130 net.cpp:165] Memory required for data: 1995648
I0228 11:16:21.814855 28130 layer_factory.hpp:77] Creating layer batch_norm_g2
I0228 11:16:21.814862 28130 net.cpp:100] Creating Layer batch_norm_g2
I0228 11:16:21.814865 28130 net.cpp:434] batch_norm_g2 <- gen_conv2
I0228 11:16:21.814872 28130 net.cpp:395] batch_norm_g2 -> gen_conv2 (in-place)
I0228 11:16:21.814882 28130 net.cpp:150] Setting up batch_norm_g2
I0228 11:16:21.814888 28130 net.cpp:157] Top shape: 32 64 8 8 (131072)
I0228 11:16:21.814889 28130 net.cpp:165] Memory required for data: 2519936
I0228 11:16:21.814898 28130 layer_factory.hpp:77] Creating layer scale_batch_g2
I0228 11:16:21.814903 28130 net.cpp:100] Creating Layer scale_batch_g2
I0228 11:16:21.814906 28130 net.cpp:434] scale_batch_g2 <- gen_conv2
I0228 11:16:21.814910 28130 net.cpp:395] scale_batch_g2 -> gen_conv2 (in-place)
I0228 11:16:21.814918 28130 layer_factory.hpp:77] Creating layer scale_batch_g2
I0228 11:16:21.814930 28130 net.cpp:150] Setting up scale_batch_g2
I0228 11:16:21.814935 28130 net.cpp:157] Top shape: 32 64 8 8 (131072)
I0228 11:16:21.814939 28130 net.cpp:165] Memory required for data: 3044224
I0228 11:16:21.814942 28130 layer_factory.hpp:77] Creating layer relu_g2
I0228 11:16:21.814949 28130 net.cpp:100] Creating Layer relu_g2
I0228 11:16:21.814951 28130 net.cpp:434] relu_g2 <- gen_conv2
I0228 11:16:21.814954 28130 net.cpp:395] relu_g2 -> gen_conv2 (in-place)
I0228 11:16:21.814959 28130 net.cpp:150] Setting up relu_g2
I0228 11:16:21.814962 28130 net.cpp:157] Top shape: 32 64 8 8 (131072)
I0228 11:16:21.814965 28130 net.cpp:165] Memory required for data: 3568512
I0228 11:16:21.814967 28130 layer_factory.hpp:77] Creating layer gen_conv3
I0228 11:16:21.814975 28130 net.cpp:100] Creating Layer gen_conv3
I0228 11:16:21.814977 28130 net.cpp:434] gen_conv3 <- gen_conv2
I0228 11:16:21.814983 28130 net.cpp:408] gen_conv3 -> gen_conv3
I0228 11:16:21.816638 28130 net.cpp:150] Setting up gen_conv3
I0228 11:16:21.816648 28130 net.cpp:157] Top shape: 32 32 16 16 (262144)
I0228 11:16:21.816651 28130 net.cpp:165] Memory required for data: 4617088
I0228 11:16:21.816656 28130 layer_factory.hpp:77] Creating layer batch_norm_g3
I0228 11:16:21.816661 28130 net.cpp:100] Creating Layer batch_norm_g3
I0228 11:16:21.816665 28130 net.cpp:434] batch_norm_g3 <- gen_conv3
I0228 11:16:21.816669 28130 net.cpp:395] batch_norm_g3 -> gen_conv3 (in-place)
I0228 11:16:21.816680 28130 net.cpp:150] Setting up batch_norm_g3
I0228 11:16:21.816685 28130 net.cpp:157] Top shape: 32 32 16 16 (262144)
I0228 11:16:21.816689 28130 net.cpp:165] Memory required for data: 5665664
I0228 11:16:21.816699 28130 layer_factory.hpp:77] Creating layer scale_batch_g3
I0228 11:16:21.816704 28130 net.cpp:100] Creating Layer scale_batch_g3
I0228 11:16:21.816709 28130 net.cpp:434] scale_batch_g3 <- gen_conv3
I0228 11:16:21.816714 28130 net.cpp:395] scale_batch_g3 -> gen_conv3 (in-place)
I0228 11:16:21.816722 28130 layer_factory.hpp:77] Creating layer scale_batch_g3
I0228 11:16:21.816735 28130 net.cpp:150] Setting up scale_batch_g3
I0228 11:16:21.816740 28130 net.cpp:157] Top shape: 32 32 16 16 (262144)
I0228 11:16:21.816743 28130 net.cpp:165] Memory required for data: 6714240
I0228 11:16:21.816748 28130 layer_factory.hpp:77] Creating layer relu_g3
I0228 11:16:21.816753 28130 net.cpp:100] Creating Layer relu_g3
I0228 11:16:21.816757 28130 net.cpp:434] relu_g3 <- gen_conv3
I0228 11:16:21.816761 28130 net.cpp:395] relu_g3 -> gen_conv3 (in-place)
I0228 11:16:21.816776 28130 net.cpp:150] Setting up relu_g3
I0228 11:16:21.816781 28130 net.cpp:157] Top shape: 32 32 16 16 (262144)
I0228 11:16:21.816783 28130 net.cpp:165] Memory required for data: 7762816
I0228 11:16:21.816787 28130 layer_factory.hpp:77] Creating layer gen_conv4
I0228 11:16:21.816795 28130 net.cpp:100] Creating Layer gen_conv4
I0228 11:16:21.816798 28130 net.cpp:434] gen_conv4 <- gen_conv3
I0228 11:16:21.816802 28130 net.cpp:408] gen_conv4 -> gen_conv4
I0228 11:16:21.816856 28130 net.cpp:150] Setting up gen_conv4
I0228 11:16:21.816872 28130 net.cpp:157] Top shape: 32 1 32 32 (32768)
I0228 11:16:21.816879 28130 net.cpp:165] Memory required for data: 7893888
I0228 11:16:21.816886 28130 layer_factory.hpp:77] Creating layer tanh_g4
I0228 11:16:21.816895 28130 net.cpp:100] Creating Layer tanh_g4
I0228 11:16:21.816900 28130 net.cpp:434] tanh_g4 <- gen_conv4
I0228 11:16:21.816906 28130 net.cpp:395] tanh_g4 -> gen_conv4 (in-place)
I0228 11:16:21.816915 28130 net.cpp:150] Setting up tanh_g4
I0228 11:16:21.816922 28130 net.cpp:157] Top shape: 32 1 32 32 (32768)
I0228 11:16:21.816926 28130 net.cpp:165] Memory required for data: 8024960
I0228 11:16:21.816927 28130 layer_factory.hpp:77] Creating layer gan_gate
I0228 11:16:21.816932 28130 net.cpp:100] Creating Layer gan_gate
I0228 11:16:21.816936 28130 net.cpp:434] gan_gate <- data
I0228 11:16:21.816939 28130 net.cpp:434] gan_gate <- gen_conv4
I0228 11:16:21.816944 28130 net.cpp:408] gan_gate -> dis_input
I0228 11:16:21.816954 28130 net.cpp:150] Setting up gan_gate
I0228 11:16:21.816958 28130 net.cpp:157] Top shape: 32 1 32 32 (32768)
I0228 11:16:21.816962 28130 net.cpp:165] Memory required for data: 8156032
I0228 11:16:21.816963 28130 layer_factory.hpp:77] Creating layer dis_input_gan_gate_0_split
I0228 11:16:21.816968 28130 net.cpp:100] Creating Layer dis_input_gan_gate_0_split
I0228 11:16:21.816970 28130 net.cpp:434] dis_input_gan_gate_0_split <- dis_input
I0228 11:16:21.816974 28130 net.cpp:408] dis_input_gan_gate_0_split -> dis_input_gan_gate_0_split_0
I0228 11:16:21.816980 28130 net.cpp:408] dis_input_gan_gate_0_split -> dis_input_gan_gate_0_split_1
I0228 11:16:21.816987 28130 net.cpp:150] Setting up dis_input_gan_gate_0_split
I0228 11:16:21.816990 28130 net.cpp:157] Top shape: 32 1 32 32 (32768)
I0228 11:16:21.816993 28130 net.cpp:157] Top shape: 32 1 32 32 (32768)
I0228 11:16:21.816997 28130 net.cpp:165] Memory required for data: 8418176
I0228 11:16:21.816998 28130 layer_factory.hpp:77] Creating layer dis_conv_d1
I0228 11:16:21.817009 28130 net.cpp:100] Creating Layer dis_conv_d1
I0228 11:16:21.817013 28130 net.cpp:434] dis_conv_d1 <- dis_input_gan_gate_0_split_0
I0228 11:16:21.817018 28130 net.cpp:408] dis_conv_d1 -> dis_conv_d1
I0228 11:16:21.817057 28130 net.cpp:150] Setting up dis_conv_d1
I0228 11:16:21.817064 28130 net.cpp:157] Top shape: 32 32 16 16 (262144)
I0228 11:16:21.817066 28130 net.cpp:165] Memory required for data: 9466752
I0228 11:16:21.817070 28130 layer_factory.hpp:77] Creating layer batch_norm_d1
I0228 11:16:21.817075 28130 net.cpp:100] Creating Layer batch_norm_d1
I0228 11:16:21.817077 28130 net.cpp:434] batch_norm_d1 <- dis_conv_d1
I0228 11:16:21.817082 28130 net.cpp:395] batch_norm_d1 -> dis_conv_d1 (in-place)
I0228 11:16:21.817093 28130 net.cpp:150] Setting up batch_norm_d1
I0228 11:16:21.817098 28130 net.cpp:157] Top shape: 32 32 16 16 (262144)
I0228 11:16:21.817101 28130 net.cpp:165] Memory required for data: 10515328
I0228 11:16:21.817107 28130 layer_factory.hpp:77] Creating layer scale_batch_d1
I0228 11:16:21.817114 28130 net.cpp:100] Creating Layer scale_batch_d1
I0228 11:16:21.817118 28130 net.cpp:434] scale_batch_d1 <- dis_conv_d1
I0228 11:16:21.817122 28130 net.cpp:395] scale_batch_d1 -> dis_conv_d1 (in-place)
I0228 11:16:21.817131 28130 layer_factory.hpp:77] Creating layer scale_batch_d1
I0228 11:16:21.817143 28130 net.cpp:150] Setting up scale_batch_d1
I0228 11:16:21.817148 28130 net.cpp:157] Top shape: 32 32 16 16 (262144)
I0228 11:16:21.817150 28130 net.cpp:165] Memory required for data: 11563904
I0228 11:16:21.817155 28130 layer_factory.hpp:77] Creating layer relu_d1
I0228 11:16:21.817167 28130 net.cpp:100] Creating Layer relu_d1
I0228 11:16:21.817172 28130 net.cpp:434] relu_d1 <- dis_conv_d1
I0228 11:16:21.817175 28130 net.cpp:395] relu_d1 -> dis_conv_d1 (in-place)
I0228 11:16:21.817181 28130 net.cpp:150] Setting up relu_d1
I0228 11:16:21.817186 28130 net.cpp:157] Top shape: 32 32 16 16 (262144)
I0228 11:16:21.817189 28130 net.cpp:165] Memory required for data: 12612480
I0228 11:16:21.817191 28130 layer_factory.hpp:77] Creating layer dis_conv_d2
I0228 11:16:21.817199 28130 net.cpp:100] Creating Layer dis_conv_d2
I0228 11:16:21.817203 28130 net.cpp:434] dis_conv_d2 <- dis_conv_d1
I0228 11:16:21.817208 28130 net.cpp:408] dis_conv_d2 -> dis_conv_d2
I0228 11:16:21.818859 28130 net.cpp:150] Setting up dis_conv_d2
I0228 11:16:21.818869 28130 net.cpp:157] Top shape: 32 64 8 8 (131072)
I0228 11:16:21.818872 28130 net.cpp:165] Memory required for data: 13136768
I0228 11:16:21.818877 28130 layer_factory.hpp:77] Creating layer batch_norm_d2
I0228 11:16:21.818881 28130 net.cpp:100] Creating Layer batch_norm_d2
I0228 11:16:21.818884 28130 net.cpp:434] batch_norm_d2 <- dis_conv_d2
I0228 11:16:21.818889 28130 net.cpp:395] batch_norm_d2 -> dis_conv_d2 (in-place)
I0228 11:16:21.818902 28130 net.cpp:150] Setting up batch_norm_d2
I0228 11:16:21.818907 28130 net.cpp:157] Top shape: 32 64 8 8 (131072)
I0228 11:16:21.818909 28130 net.cpp:165] Memory required for data: 13661056
I0228 11:16:21.818918 28130 layer_factory.hpp:77] Creating layer scale_batch_d2
I0228 11:16:21.818925 28130 net.cpp:100] Creating Layer scale_batch_d2
I0228 11:16:21.818929 28130 net.cpp:434] scale_batch_d2 <- dis_conv_d2
I0228 11:16:21.818933 28130 net.cpp:395] scale_batch_d2 -> dis_conv_d2 (in-place)
I0228 11:16:21.818941 28130 layer_factory.hpp:77] Creating layer scale_batch_d2
I0228 11:16:21.818953 28130 net.cpp:150] Setting up scale_batch_d2
I0228 11:16:21.818959 28130 net.cpp:157] Top shape: 32 64 8 8 (131072)
I0228 11:16:21.818961 28130 net.cpp:165] Memory required for data: 14185344
I0228 11:16:21.818965 28130 layer_factory.hpp:77] Creating layer relu_d2
I0228 11:16:21.818970 28130 net.cpp:100] Creating Layer relu_d2
I0228 11:16:21.818972 28130 net.cpp:434] relu_d2 <- dis_conv_d2
I0228 11:16:21.818976 28130 net.cpp:395] relu_d2 -> dis_conv_d2 (in-place)
I0228 11:16:21.818980 28130 net.cpp:150] Setting up relu_d2
I0228 11:16:21.818984 28130 net.cpp:157] Top shape: 32 64 8 8 (131072)
I0228 11:16:21.818987 28130 net.cpp:165] Memory required for data: 14709632
I0228 11:16:21.818989 28130 layer_factory.hpp:77] Creating layer dis_conv_d3
I0228 11:16:21.819000 28130 net.cpp:100] Creating Layer dis_conv_d3
I0228 11:16:21.819003 28130 net.cpp:434] dis_conv_d3 <- dis_conv_d2
I0228 11:16:21.819008 28130 net.cpp:408] dis_conv_d3 -> dis_conv_d3
I0228 11:16:21.825616 28130 net.cpp:150] Setting up dis_conv_d3
I0228 11:16:21.825636 28130 net.cpp:157] Top shape: 32 128 4 4 (65536)
I0228 11:16:21.825640 28130 net.cpp:165] Memory required for data: 14971776
I0228 11:16:21.825647 28130 layer_factory.hpp:77] Creating layer batch_norm_d3
I0228 11:16:21.825655 28130 net.cpp:100] Creating Layer batch_norm_d3
I0228 11:16:21.825659 28130 net.cpp:434] batch_norm_d3 <- dis_conv_d3
I0228 11:16:21.825664 28130 net.cpp:395] batch_norm_d3 -> dis_conv_d3 (in-place)
I0228 11:16:21.825676 28130 net.cpp:150] Setting up batch_norm_d3
I0228 11:16:21.825680 28130 net.cpp:157] Top shape: 32 128 4 4 (65536)
I0228 11:16:21.825685 28130 net.cpp:165] Memory required for data: 15233920
I0228 11:16:21.825690 28130 layer_factory.hpp:77] Creating layer scale_batch_d3
I0228 11:16:21.825695 28130 net.cpp:100] Creating Layer scale_batch_d3
I0228 11:16:21.825698 28130 net.cpp:434] scale_batch_d3 <- dis_conv_d3
I0228 11:16:21.825703 28130 net.cpp:395] scale_batch_d3 -> dis_conv_d3 (in-place)
I0228 11:16:21.825711 28130 layer_factory.hpp:77] Creating layer scale_batch_d3
I0228 11:16:21.825724 28130 net.cpp:150] Setting up scale_batch_d3
I0228 11:16:21.825728 28130 net.cpp:157] Top shape: 32 128 4 4 (65536)
I0228 11:16:21.825731 28130 net.cpp:165] Memory required for data: 15496064
I0228 11:16:21.825745 28130 layer_factory.hpp:77] Creating layer relu_d3
I0228 11:16:21.825750 28130 net.cpp:100] Creating Layer relu_d3
I0228 11:16:21.825752 28130 net.cpp:434] relu_d3 <- dis_conv_d3
I0228 11:16:21.825755 28130 net.cpp:395] relu_d3 -> dis_conv_d3 (in-place)
I0228 11:16:21.825760 28130 net.cpp:150] Setting up relu_d3
I0228 11:16:21.825763 28130 net.cpp:157] Top shape: 32 128 4 4 (65536)
I0228 11:16:21.825767 28130 net.cpp:165] Memory required for data: 15758208
I0228 11:16:21.825768 28130 layer_factory.hpp:77] Creating layer recog_conv_d1
I0228 11:16:21.825776 28130 net.cpp:100] Creating Layer recog_conv_d1
I0228 11:16:21.825779 28130 net.cpp:434] recog_conv_d1 <- dis_input_gan_gate_0_split_1
I0228 11:16:21.825786 28130 net.cpp:408] recog_conv_d1 -> recog_conv_d1
I0228 11:16:21.825824 28130 net.cpp:150] Setting up recog_conv_d1
I0228 11:16:21.825829 28130 net.cpp:157] Top shape: 32 32 16 16 (262144)
I0228 11:16:21.825831 28130 net.cpp:165] Memory required for data: 16806784
I0228 11:16:21.825834 28130 net.cpp:493] Sharing parameters 'dis_w_1' owned by layer 'dis_conv_d1', param index 0
I0228 11:16:21.825837 28130 net.cpp:493] Sharing parameters 'dis_b_1' owned by layer 'dis_conv_d1', param index 1
I0228 11:16:21.825840 28130 layer_factory.hpp:77] Creating layer batch_norm_recog1
I0228 11:16:21.825845 28130 net.cpp:100] Creating Layer batch_norm_recog1
I0228 11:16:21.825846 28130 net.cpp:434] batch_norm_recog1 <- recog_conv_d1
I0228 11:16:21.825850 28130 net.cpp:395] batch_norm_recog1 -> recog_conv_d1 (in-place)
I0228 11:16:21.825865 28130 net.cpp:150] Setting up batch_norm_recog1
I0228 11:16:21.825873 28130 net.cpp:157] Top shape: 32 32 16 16 (262144)
I0228 11:16:21.825876 28130 net.cpp:165] Memory required for data: 17855360
I0228 11:16:21.825882 28130 layer_factory.hpp:77] Creating layer scale_batch_recog1
I0228 11:16:21.825887 28130 net.cpp:100] Creating Layer scale_batch_recog1
I0228 11:16:21.825889 28130 net.cpp:434] scale_batch_recog1 <- recog_conv_d1
I0228 11:16:21.825893 28130 net.cpp:395] scale_batch_recog1 -> recog_conv_d1 (in-place)
I0228 11:16:21.825902 28130 layer_factory.hpp:77] Creating layer scale_batch_recog1
I0228 11:16:21.825913 28130 net.cpp:150] Setting up scale_batch_recog1
I0228 11:16:21.825918 28130 net.cpp:157] Top shape: 32 32 16 16 (262144)
I0228 11:16:21.825920 28130 net.cpp:165] Memory required for data: 18903936
I0228 11:16:21.825923 28130 net.cpp:493] Sharing parameters 'dis_s1' owned by layer 'scale_batch_d1', param index 0
I0228 11:16:21.825927 28130 net.cpp:493] Sharing parameters 'dis_b1' owned by layer 'scale_batch_d1', param index 1
I0228 11:16:21.825929 28130 layer_factory.hpp:77] Creating layer relu_recog1
I0228 11:16:21.825933 28130 net.cpp:100] Creating Layer relu_recog1
I0228 11:16:21.825935 28130 net.cpp:434] relu_recog1 <- recog_conv_d1
I0228 11:16:21.825938 28130 net.cpp:395] relu_recog1 -> recog_conv_d1 (in-place)
I0228 11:16:21.825942 28130 net.cpp:150] Setting up relu_recog1
I0228 11:16:21.825945 28130 net.cpp:157] Top shape: 32 32 16 16 (262144)
I0228 11:16:21.825947 28130 net.cpp:165] Memory required for data: 19952512
I0228 11:16:21.825950 28130 layer_factory.hpp:77] Creating layer recog_conv_d2
I0228 11:16:21.825956 28130 net.cpp:100] Creating Layer recog_conv_d2
I0228 11:16:21.825960 28130 net.cpp:434] recog_conv_d2 <- recog_conv_d1
I0228 11:16:21.825964 28130 net.cpp:408] recog_conv_d2 -> recog_conv_d2
I0228 11:16:21.827396 28130 net.cpp:150] Setting up recog_conv_d2
I0228 11:16:21.827404 28130 net.cpp:157] Top shape: 32 64 8 8 (131072)
I0228 11:16:21.827406 28130 net.cpp:165] Memory required for data: 20476800
I0228 11:16:21.827410 28130 net.cpp:493] Sharing parameters 'dis_w_2' owned by layer 'dis_conv_d2', param index 0
I0228 11:16:21.827415 28130 net.cpp:493] Sharing parameters 'dis_b_2' owned by layer 'dis_conv_d2', param index 1
I0228 11:16:21.827419 28130 layer_factory.hpp:77] Creating layer batch_norm_recog2
I0228 11:16:21.827422 28130 net.cpp:100] Creating Layer batch_norm_recog2
I0228 11:16:21.827425 28130 net.cpp:434] batch_norm_recog2 <- recog_conv_d2
I0228 11:16:21.827437 28130 net.cpp:395] batch_norm_recog2 -> recog_conv_d2 (in-place)
I0228 11:16:21.827450 28130 net.cpp:150] Setting up batch_norm_recog2
I0228 11:16:21.827455 28130 net.cpp:157] Top shape: 32 64 8 8 (131072)
I0228 11:16:21.827460 28130 net.cpp:165] Memory required for data: 21001088
I0228 11:16:21.827467 28130 layer_factory.hpp:77] Creating layer scale_batch_recog2
I0228 11:16:21.827473 28130 net.cpp:100] Creating Layer scale_batch_recog2
I0228 11:16:21.827478 28130 net.cpp:434] scale_batch_recog2 <- recog_conv_d2
I0228 11:16:21.827482 28130 net.cpp:395] scale_batch_recog2 -> recog_conv_d2 (in-place)
I0228 11:16:21.827492 28130 layer_factory.hpp:77] Creating layer scale_batch_recog2
I0228 11:16:21.827505 28130 net.cpp:150] Setting up scale_batch_recog2
I0228 11:16:21.827510 28130 net.cpp:157] Top shape: 32 64 8 8 (131072)
I0228 11:16:21.827513 28130 net.cpp:165] Memory required for data: 21525376
I0228 11:16:21.827518 28130 net.cpp:493] Sharing parameters 'dis_s2' owned by layer 'scale_batch_d2', param index 0
I0228 11:16:21.827523 28130 net.cpp:493] Sharing parameters 'dis_b2' owned by layer 'scale_batch_d2', param index 1
I0228 11:16:21.827528 28130 layer_factory.hpp:77] Creating layer relu_recog2
I0228 11:16:21.827534 28130 net.cpp:100] Creating Layer relu_recog2
I0228 11:16:21.827538 28130 net.cpp:434] relu_recog2 <- recog_conv_d2
I0228 11:16:21.827543 28130 net.cpp:395] relu_recog2 -> recog_conv_d2 (in-place)
I0228 11:16:21.827549 28130 net.cpp:150] Setting up relu_recog2
I0228 11:16:21.827554 28130 net.cpp:157] Top shape: 32 64 8 8 (131072)
I0228 11:16:21.827558 28130 net.cpp:165] Memory required for data: 22049664
I0228 11:16:21.827563 28130 layer_factory.hpp:77] Creating layer recog_conv_d3
I0228 11:16:21.827570 28130 net.cpp:100] Creating Layer recog_conv_d3
I0228 11:16:21.827574 28130 net.cpp:434] recog_conv_d3 <- recog_conv_d2
I0228 11:16:21.827581 28130 net.cpp:408] recog_conv_d3 -> recog_conv_d3
I0228 11:16:21.832794 28130 net.cpp:150] Setting up recog_conv_d3
I0228 11:16:21.832801 28130 net.cpp:157] Top shape: 32 128 4 4 (65536)
I0228 11:16:21.832803 28130 net.cpp:165] Memory required for data: 22311808
I0228 11:16:21.832806 28130 net.cpp:493] Sharing parameters 'dis_w_3' owned by layer 'dis_conv_d3', param index 0
I0228 11:16:21.832808 28130 net.cpp:493] Sharing parameters 'dis_b_3' owned by layer 'dis_conv_d3', param index 1
I0228 11:16:21.832811 28130 layer_factory.hpp:77] Creating layer batch_norm_recog3
I0228 11:16:21.832814 28130 net.cpp:100] Creating Layer batch_norm_recog3
I0228 11:16:21.832818 28130 net.cpp:434] batch_norm_recog3 <- recog_conv_d3
I0228 11:16:21.832820 28130 net.cpp:395] batch_norm_recog3 -> recog_conv_d3 (in-place)
I0228 11:16:21.832829 28130 net.cpp:150] Setting up batch_norm_recog3
I0228 11:16:21.832833 28130 net.cpp:157] Top shape: 32 128 4 4 (65536)
I0228 11:16:21.832835 28130 net.cpp:165] Memory required for data: 22573952
I0228 11:16:21.832840 28130 layer_factory.hpp:77] Creating layer scale_batch_recog3
I0228 11:16:21.832846 28130 net.cpp:100] Creating Layer scale_batch_recog3
I0228 11:16:21.832849 28130 net.cpp:434] scale_batch_recog3 <- recog_conv_d3
I0228 11:16:21.832852 28130 net.cpp:395] scale_batch_recog3 -> recog_conv_d3 (in-place)
I0228 11:16:21.832857 28130 layer_factory.hpp:77] Creating layer scale_batch_recog3
I0228 11:16:21.832867 28130 net.cpp:150] Setting up scale_batch_recog3
I0228 11:16:21.832871 28130 net.cpp:157] Top shape: 32 128 4 4 (65536)
I0228 11:16:21.832873 28130 net.cpp:165] Memory required for data: 22836096
I0228 11:16:21.832876 28130 net.cpp:493] Sharing parameters 'dis_s3' owned by layer 'scale_batch_d3', param index 0
I0228 11:16:21.832885 28130 net.cpp:493] Sharing parameters 'dis_b3' owned by layer 'scale_batch_d3', param index 1
I0228 11:16:21.832888 28130 layer_factory.hpp:77] Creating layer relu_recog3
I0228 11:16:21.832891 28130 net.cpp:100] Creating Layer relu_recog3
I0228 11:16:21.832893 28130 net.cpp:434] relu_recog3 <- recog_conv_d3
I0228 11:16:21.832896 28130 net.cpp:395] relu_recog3 -> recog_conv_d3 (in-place)
I0228 11:16:21.832907 28130 net.cpp:150] Setting up relu_recog3
I0228 11:16:21.832911 28130 net.cpp:157] Top shape: 32 128 4 4 (65536)
I0228 11:16:21.832913 28130 net.cpp:165] Memory required for data: 23098240
I0228 11:16:21.832916 28130 layer_factory.hpp:77] Creating layer score
I0228 11:16:21.832921 28130 net.cpp:100] Creating Layer score
I0228 11:16:21.832923 28130 net.cpp:434] score <- dis_conv_d3
I0228 11:16:21.832927 28130 net.cpp:408] score -> score
I0228 11:16:21.832985 28130 net.cpp:150] Setting up score
I0228 11:16:21.832989 28130 net.cpp:157] Top shape: 32 1 (32)
I0228 11:16:21.832991 28130 net.cpp:165] Memory required for data: 23098368
I0228 11:16:21.832995 28130 layer_factory.hpp:77] Creating layer sigmoid
I0228 11:16:21.832999 28130 net.cpp:100] Creating Layer sigmoid
I0228 11:16:21.833001 28130 net.cpp:434] sigmoid <- score
I0228 11:16:21.833005 28130 net.cpp:395] sigmoid -> score (in-place)
I0228 11:16:21.833009 28130 net.cpp:150] Setting up sigmoid
I0228 11:16:21.833014 28130 net.cpp:157] Top shape: 32 1 (32)
I0228 11:16:21.833015 28130 net.cpp:165] Memory required for data: 23098496
I0228 11:16:21.833017 28130 layer_factory.hpp:77] Creating layer recong_ip
I0228 11:16:21.833020 28130 net.cpp:100] Creating Layer recong_ip
I0228 11:16:21.833024 28130 net.cpp:434] recong_ip <- recog_conv_d3
I0228 11:16:21.833027 28130 net.cpp:408] recong_ip -> recong_ip
I0228 11:16:21.839330 28130 net.cpp:150] Setting up recong_ip
I0228 11:16:21.839345 28130 net.cpp:157] Top shape: 32 128 (4096)
I0228 11:16:21.839349 28130 net.cpp:165] Memory required for data: 23114880
I0228 11:16:21.839354 28130 layer_factory.hpp:77] Creating layer recong_ip_recong_ip_0_split
I0228 11:16:21.839359 28130 net.cpp:100] Creating Layer recong_ip_recong_ip_0_split
I0228 11:16:21.839360 28130 net.cpp:434] recong_ip_recong_ip_0_split <- recong_ip
I0228 11:16:21.839365 28130 net.cpp:408] recong_ip_recong_ip_0_split -> recong_ip_recong_ip_0_split_0
I0228 11:16:21.839368 28130 net.cpp:408] recong_ip_recong_ip_0_split -> recong_ip_recong_ip_0_split_1
I0228 11:16:21.839373 28130 net.cpp:150] Setting up recong_ip_recong_ip_0_split
I0228 11:16:21.839376 28130 net.cpp:157] Top shape: 32 128 (4096)
I0228 11:16:21.839380 28130 net.cpp:157] Top shape: 32 128 (4096)
I0228 11:16:21.839380 28130 net.cpp:165] Memory required for data: 23147648
I0228 11:16:21.839382 28130 layer_factory.hpp:77] Creating layer category_ip
I0228 11:16:21.839388 28130 net.cpp:100] Creating Layer category_ip
I0228 11:16:21.839392 28130 net.cpp:434] category_ip <- recong_ip_recong_ip_0_split_0
I0228 11:16:21.839396 28130 net.cpp:408] category_ip -> category_ip
I0228 11:16:21.839434 28130 net.cpp:150] Setting up category_ip
I0228 11:16:21.839438 28130 net.cpp:157] Top shape: 32 10 (320)
I0228 11:16:21.839440 28130 net.cpp:165] Memory required for data: 23148928
I0228 11:16:21.839443 28130 layer_factory.hpp:77] Creating layer continus_ip
I0228 11:16:21.839449 28130 net.cpp:100] Creating Layer continus_ip
I0228 11:16:21.839452 28130 net.cpp:434] continus_ip <- recong_ip_recong_ip_0_split_1
I0228 11:16:21.839455 28130 net.cpp:408] continus_ip -> continus_ip
I0228 11:16:21.839469 28130 net.cpp:150] Setting up continus_ip
I0228 11:16:21.839473 28130 net.cpp:157] Top shape: 32 2 (64)
I0228 11:16:21.839475 28130 net.cpp:165] Memory required for data: 23149184
I0228 11:16:21.839478 28130 layer_factory.hpp:77] Creating layer continus_sig
I0228 11:16:21.839483 28130 net.cpp:100] Creating Layer continus_sig
I0228 11:16:21.839485 28130 net.cpp:434] continus_sig <- continus_ip
I0228 11:16:21.839489 28130 net.cpp:395] continus_sig -> continus_ip (in-place)
I0228 11:16:21.839493 28130 net.cpp:150] Setting up continus_sig
I0228 11:16:21.839498 28130 net.cpp:157] Top shape: 32 2 (64)
I0228 11:16:21.839499 28130 net.cpp:165] Memory required for data: 23149440
I0228 11:16:21.839501 28130 layer_factory.hpp:77] Creating layer gan_loss
I0228 11:16:21.839505 28130 net.cpp:100] Creating Layer gan_loss
I0228 11:16:21.839507 28130 net.cpp:434] gan_loss <- score
I0228 11:16:21.839519 28130 net.cpp:408] gan_loss -> gan_loss
I0228 11:16:21.839529 28130 net.cpp:150] Setting up gan_loss
…
